Ai part of the app/data.pth (torch, 12799 bytes, 6 tensors)

l1.weight f4 [8, 212]
0.5451197 0.29732573 0.27597833 0.67801976 0.41411284 0.33289793 0.52544683 0.55934423
0.39103788 -0.17735955 0.9459347 -0.18282412 0.2311998 0.40506244 -0.5574742 0.34986222
-0.73037004 0.70987654 0.7828458 0.60054517 -0.7427662 1.4349482 -0.3260516 -0.45473453
-0.11770013 0.75312907 0.3247011 -0.74577004 -0.59634775 -0.026268128 0.42402396 0.8305738
-0.5258286 -0.0039429544 -0.19404459 -0.036851306 -0.2443527 0.37731752 -0.1812274 -1.1762563
-0.7175003 -0.56534463 -0.68494993 0.59835285 0.5983361 -0.60996234 -0.18426532 -0.3035264
-0.7491054 -0.14815089 -0.090210594 -0.24433705 -0.24835932 -0.21979669 -0.06515014 -0.1277748
0.19804825 -0.113588944 -0.10905066 1.2818004 -0.8169186 0.8774043 -0.27751002 0.06555546
0.22431567 -0.13515206 0.63014555 -0.4090854 0.03193777 0.47021243 -0.47250438 -0.14242531
-0.33385774 0.33772862 -1.3198314 -0.23952207 -0.39022893 0.44497105 0.36168432 1.1576514
0.30338058 0.560531 -0.56674445 0.87633735 0.9961139 0.7892594 -0.27018216 0.43668786
-0.078912914 1.2481768 -0.018709645 0.4145823 -0.03244477 -0.08179628 -0.042256992 -0.13952167
1.4670165 0.2315725 0.31155273 0.58298284 0.2219191 -0.43591696 0.115247235 0.5800817
0.27631873 0.1936207 -0.3684744 -0.37248036 0.017382197 0.4598971 0.36633453 -0.30516618
0.26853758 1.2646811 0.5528106 0.43061763 0.22309534 -0.1975907 -0.18662527 -0.39348337
-0.1949118 -0.3871597 1.0935508 0.3054577 0.78464395 0.32968205 -0.67160404 -0.3323453
0.41502827 1.4222103 0.29500625 -0.20452128 0.46685216 0.66602683 -0.20046358 0.21730863
0.62158954 -0.6718036 0.23989902 0.83184505 0.6824738 0.52803665 0.91027564 -0.15661074
-0.3196886 1.0483807 -0.18994987 -0.8222086 0.054582916 -0.022339713 -0.1364697 0.1999764
-0.30494025 -0.18154854 -0.33176777 -0.2231035 0.58093786 0.30211002 0.34438455 -0.46905646
-0.07538931 0.6151812 -0.3061679 0.24597123 -0.36101666 -0.19539988 0.4379369 -0.20692742
-0.116339505 -0.3057302 -0.22151652 0.6123201 0.25491396 0.37085778 0.0030853648 -0.29806027
0.32388842 0.15937388 1.205228 -0.12459287 0.37919027 0.3248894 0.2949903 0.7588553
0.26033646 -0.5450599 0.39174888 -0.19697665 -0.17967308 0.47210893 -0.5622354 0.33248085
-0.09929539 0.25473908 0.19293651 -0.045013323 0.19881888 -0.112987824 -0.15513809 0.5934362
0.51367074 -0.34045237 0.42083812 0.9420169 0.7247201 0.82626593 -0.7140771 0.65852356
0.5556958 0.46362522 -0.12639564 -0.2275141 -0.4320979 0.8384726 -0.15350474 -0.4192073
-0.16688032 0.66051495 0.23012404 -0.4486504 0.44039637 0.14608783 -0.93002266 0.098334394
0.6016624 0.73414665 0.022456415 0.11275411 -0.6438641 -0.44749746 -1.2450658 0.5375683
-0.643751 1.8480088 -0.3463547 0.3511423 0.6725422 -0.70464545 0.84916997 -0.6438916
0.38858017 0.2287602 -0.4285672 -0.1852477 0.5599991 0.5509663 -0.37497935 0.2731314
-0.094276145 0.64727604 -0.34389836 0.6964214 -0.64420915 1.6693667 1.2619514 0.35783684
00000000: f78c 0b3f 143b 983e 084d 8d3e b492 2d3f
00000010: 9906 d43e 9971 aa3e af83 063f 2f31 0f3f
00000020: 1e36 c83e be9d 35be c728 723f 3f36 3bbe
00000030: a4bf 6c3e 5864 cf3e a1b6 0ebf 2421 b33e
00000040: 88f9 3abf 78ba 353f 9568 483f 54bd 193f
00000050: ed25 3ebf 62ac b73f 3cf0 a6be f7d2 e8be
00000060: c40c f1bd 11cd 403f 393f a63e c9ea 3ebf
00000070: 3faa 18bf 4230 d7bc ab19 d93e 7ca0 543f
00000080: b49c 06bf e633 81bb a0b3 46be 65f1 16bd
00000090: 9837 7abe c32f c13e ad93 39be 918f 96bf
000000a0: 1aae 37bf 6dba 10bf e158 2fbf a72d 193f
000000b0: 8e2c 193f 7e26 1cbf 0cb0 3cbe d067 9bbe
000000c0: 5fc5 3fbf deb4 17be 55c0 b8bd 7e33 7abe
000000d0: e851 7ebe 6212 61be 706d 85bd 66d7 02be
000000e0: 29cd 4a3e 52a1 e8bd f455 dfbd 0912 a43f
000000f0: 9421 51bf 919d 603f cb15 8ebe f141 863d
00000100: 02b3 653e 4d65 0abe 3851 213f a473 d1be
00000110: 2ed1 023d afbf f03e 18ec f1be f1d7 11be
00000120: 67ef aabe c4ea ac3e 3cf0 a8bf 4645 75be
00000130: 16cc c7be 3fd3 e33e b02e b93e ec2d 943f
00000140: b354 9b3e f67e 0f3f 2a16 11bf a557 603f
00000150: 5201 7f3f e70c 4a3f 5155 8abe 8d95 df3e
00000160: 189d a1bd 42c4 9f3f f844 99bc 2244 d43e
00000170: cfe4 04bd cf84 a7bd ab15 2dbd c5de 0ebe
00000180: 32c7 bb3f 5721 6d3e d783 9f3e 5d3e 153f
00000190: c33e 633e 8230 dfbe be06 ec3d 3c80 143f
000001a0: a679 8d3e 8144 463e ada8 bcbe bfb5 bebe
000001b0: 1c65 8e3c a277 eb3e 3390 bb3e be3e 9cbe
000001c0: c27d 893e 12e1 a13f ff84 0d3f ea79 dc3e
000001d0: 1b73 643e 3755 4abe b21a 3fbe a776 c9be
000001e0: f596 47be cc39 c6be 79f9 8b3f f464 9c3e
000001f0: 6dde 483f 16cc a83e 3eee 2bbf 2a29 aabe
00000200: 967e d43e fd0a b63f 0f0b 973e 076e 51be
00000210: 3f07 ef3e bc80 2a3f 5346 4dbe 2786 5e3e
00000220: 7e20 1f3f 52fb 2bbf 17a8 753e ccf3 543f
00000230: 9ab6 2e3f 692d 073f d307 693f 915e 20be
00000240: 39ae a3be 5731 863f 3882 42be 437c 52bf
00000250: 5692 5f3d c601 b7bc b7be 0bbe 9dc6 4c3e
00000260: 2121 9cbe dce7 39be 77dd a9be 3e75 64be
00000270: 58b8 143f 2aae 9a3e 2c53 b03e 2b28 f0be
00000280: b665 9abd 847c 1d3f 0ac2 9cbe e2df 7b3e
00000290: 2dd7 b8be e816 48be 4439 e03e c8e4 53be
000002a0: 6843 eebd ab88 9cbe 3ad5 62be 03c1 1c3f
000002b0: 1584 823e 12e1 bd3e d533 4a3b 5b9b 98be
000002c0: b4d4 a53e e832 233e e944 9a3f 8c2a ffbd
000002d0: 3a25 c23e e757 a63e f808 973e 5744 423f
000002e0: d24a 853e 0c89 0bbf 4f93 c83e 3fb4 49be
000002f0: 38fc 37be 43b8 f13e a9ee 0fbf ee3a aa3e
00000300: 625b cbbd 296d 823e 2691 453e e45f 38bd
00000310: 2d97 4b3e 2966 e7bd 85dc 1ebe 6feb 173f
00000320: ed7f 033f c64f aebe 1878 d73e 0528 713f
00000330: 4287 393f 2a86 533f c2cd 36bf 0095 283f
00000340: 1442 0e3f 4960 ed3e dc6d 01be 75f9 68be
00000350: f03b ddbe 24a6 563f 5930 1dbe 57a2 d6be
00000360: ade2 2abe 8217 293f a3a5 6b3e 81b5 e5be
00000370: a27b e13e 0c98 153e f715 6ebf 8b63 c93d
00000380: 8c06 1a3f 09f1 3b3f 84f6 b73c a0eb e63d
00000390: 47d4 24bf 631e e5be 515e 9fbf 139e 093f
000003a0: decc 24bf 8d8b ec3f 6755 b1be ecc8 b33e
000003b0: ba2b 2c3f a563 34bf 3463 593f 14d6 24bf
000003c0: fbf3 c63e 1d40 6a3e 296d dbbe 93b1 3dbe
000003d0: 1a5c 0f3f 210c 0d3f 4bfd bfbe e1d7 8b3e
000003e0: da13 c1bd e2b3 253f 7213 b0be ac48 323f
000003f0: e4ea 24bf cfad d53f a087 a13f 6436 b73e

l1.bias f4 [8]
0.86868685 0.6398233 0.6081823 0.4349551 1.2497363 0.8359034 0.62366813 0.56201935
00000000: 4362 5e3f 76cb 233f d6b1 1b3f 6fb2 de3e
00000010: 5cf7 9f3f c4fd 553f b7a8 1f3f 80e0 0f3f

l2.weight f4 [8, 8]
-0.086485505 0.0251005 -0.24222726 -0.3134504 -0.24240074 0.12163365 -0.21484245 -0.12246302
0.8985426 0.33140585 1.1604333 1.1094478 -1.1598244 1.1141803 -1.1906948 1.2052643
2.7365644 -0.43172953 -0.22114208 -0.00021567137 0.41242677 -0.249334 -1.8019574 1.2826965
-0.0088918805 0.12047014 -0.0818024 0.016910523 -0.32696062 -0.044547945 -0.22702534 0.020683527
0.2581354 -0.6308586 -0.5794093 1.0034994 0.24949819 -0.2001425 1.7905226 0.950203
-0.07670829 1.2809412 0.86814934 1.5833251 -0.80426687 0.90839595 -0.5137435 0.21223041
-0.590732 -1.6158917 2.1243951 -0.57094663 1.6048216 1.5031824 -0.11489126 1.4720525
0.23766202 2.2285366 0.86285913 0.016368804 1.5709097 1.717543 -0.56835395 -0.8308951
00000000: 501f b1bd 909f cd3c 6c0a 78be 927c a0be
00000010: e637 78be 101b f93d a9ff 5bbe e4cd fabd
00000020: e306 663f 07ae a93e 1489 943f 6302 8e3f
00000030: 2075 94bf 769d 8e3f b068 98bf 1a46 9a3f
00000040: df23 2f40 a70b ddbe 1273 62be d825 62b9
00000050: 9a29 d33e 6951 7fbe 8aa6 e6bf 662f a43f
00000060: 40af 11bc 0cb9 f63d 0488 a7bd f087 8a3c
00000070: 6267 a7be e877 36bd 5579 68be 8070 a93c
00000080: 532a 843e f37f 21bf 2b54 14bf ab72 803f
00000090: 747c 7f3e 28f2 4cbe d82f e53f 8140 733f
000000a0: 3c19 9dbd e2f5 a33f 093f 5e3f 66aa ca3f
000000b0: 6fe4 4dbf a38c 683f b284 03bf ee52 593e
000000c0: 363a 17bf 8ad5 cebf 17f6 0740 8f29 12bf
000000d0: cb6a cd3f 4868 c03f 1c4c ebbd 376c bc3f
000000e0: ac5d 733e 58a0 0e40 56e4 5c3f df17 863c
000000f0: 9213 c93f 73d8 db3f a57f 11bf 8bb5 54bf

l2.bias f4 [8]
-0.19918567 -0.38629368 0.49467686 -0.3117139 0.42148426 -0.16579911 0.30797112 1.1148422
00000000: 54f7 4bbe 49c8 c5be 4946 fd3e f798 9fbe
00000010: c9cc d73e 3ec7 29be 64ae 9d3e 26b3 8e3f

l3.weight f4 [16, 8]
-0.29225796 -2.940005 0.9463085 -0.26486638 -1.9004592 -2.9254029 0.3206835 0.85684615
-0.25648272 -1.0961607 1.2679183 0.096371174 0.6799172 -2.3026059 -0.0112473285 -0.85672045
0.34102812 -0.16135763 -0.93475896 0.12067607 0.38592654 -0.18353085 0.33615768 -0.60893035
0.21543607 0.010200677 -1.3565872 0.09436953 -0.88491166 0.24066058 0.1773128 0.037350375
0.04211864 -2.7975476 -1.9251982 -0.0782814 1.3874112 -2.5427318 1.1495711 -0.17846061
0.23490581 -2.340405 -1.8664113 0.09057805 -0.15829454 0.046986267 -1.1359651 1.4591464
0.31189004 0.09743831 0.27388278 0.011490524 -3.6298454 0.40944073 -1.7613788 0.6368746
0.049450725 0.032121066 0.68509316 0.2591243 -0.4177234 -0.2546513 -0.06911798 -2.5161512
-0.032384247 0.174279 0.79418975 -0.17400478 -0.9255317 0.055938415 -2.8991673 -0.45579132
0.1636273 -0.07153636 -0.59078044 0.11122781 0.5882098 0.07719997 -3.0483272 -0.35904518
0.24189898 0.5982903 -1.0191469 -0.30258447 -0.807593 0.3679167 -1.8188069 -0.017024638
-0.26100755 -0.027402053 -3.1190307 -0.19330403 0.33699983 0.60638094 -2.0501626 -0.10578515
0.32042286 0.23601073 0.50965464 -0.07445136 -2.7580264 -0.9790273 0.28802112 -0.06770256
0.1883578 0.07602184 0.47072446 0.06751591 0.57432705 -0.13163908 -2.520472 -2.4925847
0.1774874 -1.4426653 -2.1559143 0.17236558 -3.420818 -0.6467105 1.0330182 0.6637459
0.13574588 0.43520606 0.25379312 0.3472685 -1.5973341 0.23694277 -0.44959673 -0.8163941
00000000: d6a2 95be 0b29 3cc0 4641 723f 919c 87be
00000010: 3f42 f3bf cd39 3bc0 a130 a43e 455a 5b3f
00000020: b451 83be fe4e 8cbf 264b a23f 405e c53d
00000030: 0e0f 2e3f e55d 13c0 b746 38bc 0852 5bbf
00000040: 3d9b ae3e ef3a 25be 5d4c 6fbf 0425 f73d
00000050: 2a98 c53e 83ef 3bbe dc1c ac3e dce2 1bbf
00000060: 469b 5c3e be20 273c a6a4 adbf d044 c13d
00000070: 9289 62bf ba6f 763e 7d91 353e b5fc 183d
00000080: 9884 2c3d 050b 33c0 e56c f6bf 0052 a0bd
00000090: b196 b13f 1ebc 22c0 2525 933f 61be 36be
000000a0: 268b 703e 32c9 15c0 91e6 eebf fc80 b93d
000000b0: f717 22be ac74 403d 4e67 91bf 4fc5 ba3f
000000c0: 0db0 9f3e bd8d c73d 5d3a 8c3e c042 3c3c
000000d0: 634f 68c0 37a2 d13e dc74 e1bf 370a 233f
000000e0: d88c 4a3d 6191 033d 4462 2f3f f1ab 843e
000000f0: d7df d5be a861 82be ba8d 8dbd 9f08 21c0
00000100: 58a5 04bd 3276 323e 0550 4b3f 4f2e 32be
00000110: a5ef 6cbf ae1f 653d f58b 39c0 7b5d e9be
00000120: ea8d 273e a881 92bd 633d 17bf 68cb e33d
00000130: eb94 163f 051b 9e3d cb17 43c0 c5d4 b7be
00000140: 5eb4 773e 8e29 193f 6873 82bf 5aec 9abe
00000150: 6abe 4ebf 945f bc3e aace e8bf 4177 8bbc
00000160: c8a2 85be 457a e0bc 339e 47c0 7ef1 45be
00000170: 3e8b ac3e c83b 1b3f dd35 03c0 e2a5 d8bd
00000180: 770e a43e ccac 713e ba78 023f f479 98bd
00000190: 8183 30c0 88a1 7abf 8177 933e a4a7 8abd
000001a0: dee0 403e 57b1 9b3d cc02 f13e c845 8a3d
000001b0: 1907 133f 65cc 06be 6a4f 21c0 8286 1fc0
000001c0: 42bf 353e 42a9 b8bf 80fa 09c0 9a80 303e
000001d0: afee 5ac0 d28e 25bf f139 843f 40eb 293f
000001e0: f800 0b3e 54d3 de3e 2cf1 813e 2dcd b13e
000001f0: 7275 ccbf 20a1 723e 8b31 e6be 34ff 50bf

l3.bias f4 [16]
0.34982455 0.06377791 -0.24866712 -0.75111866 0.53798646 1.022729 0.30883947 -0.3676396
-0.18740882 0.086649 -0.50345093 -0.30148938 -0.3691434 0.21618839 -0.37244976 -0.8516208
00000000: 341c b33e fe9d 823d 98a2 7ebe 5049 40bf
00000010: 7bb9 093f c9e8 823f 3520 9e3e 423b bcbe
00000020: 19e8 3fbe 0875 b13d 29e2 00bf d15c 9abe
00000030: 5d00 bdbe 7d60 5d3e bcb1 bebe d203 5abf
